gesture_model.tflite (tflite, 148312 bytes, 6 tensors)

sequential_2/dense_8/BiasAdd/ReadVariableOp f4 [2]
000000 d2 60 cd bd c7 60 cd 3d
       -0.10028233 0.100282244

sequential_2/dense_7/BiasAdd/ReadVariableOp f4 [15]
000000 00 00 00 00 bc c4 30 bd 52 b7 0f 3b 5c 2c 0d bd
       0.0 -0.04315637 0.0021929336 -0.034466133
000010 00 00 00 00 22 86 16 3c 28 ce af b9 e5 89 bc 3d
       0.0 0.009187253 -0.000335322 0.09205989
000020 68 27 c5 3d 72 e4 27 3c 7d bc f9 bc 3e 20 09 bb
       0.09626657 0.010247337 -0.030485386 -0.002092376
000030 4d 63 22 bd 00 00 00 00 1d 87 f9 3d
       -0.03964548 0.0 0.12183974

sequential_2/dense_6/BiasAdd/ReadVariableOp f4 [50]
000000 00 00 00 00 4f f7 f0 bc 00 00 00 00 00 00 00 00
       0.0 -0.0294148 0.0 0.0
000010 55 99 46 bc 33 2c 4f bb 00 00 00 00 67 1b 4f bb
       -0.012121518 -0.0031612038 0.0 -0.0031602026
000020 00 00 00 00 00 00 00 00 00 00 00 00 af 34 8e ba
       0.0 0.0 0.0 -0.0010849441
000030 00 00 00 00 e7 75 4e bb a8 05 85 bb 4a c4 43 bb
       0.0 -0.003150338 -0.004059512 -0.0029871636
000040 00 00 00 00 74 9c fa bc 8d 3c 4f bb 67 32 4f bb
       0.0 -0.03059218 -0.0031621784 -0.0031615735
000050 00 00 00 00 78 07 7b bb da a2 16 bb f8 39 24 bb
       0.0 -0.0038304012 -0.002298525 -0.0025058966
000060 70 d8 32 bb 00 00 00 00 54 3c 4f bb 00 00 00 00
       -0.0027289651 0.0 -0.0031621652 0.0
000070 00 00 00 00 3c ee a3 ba 00 00 00 00 00 00 00 00
       0.0 -0.0012506912 0.0 0.0
000080 85 78 4b bb 00 00 00 00 00 00 00 00 93 ef c1 ba
       -0.0031047177 0.0 0.0 -0.001479613
000090 1f 2b 4f bb 94 d2 50 3d 00 00 00 00 43 2b 4f bb
       -0.0031611396 0.050982073 0.0 -0.003161148
0000a0 39 fd 17 bc 00 00 00 00 00 00 00 00 6f 37 4f bb
       -0.009276682 0.0 0.0 -0.0031618734
0000b0 00 00 00 00 00 00 00 00 a3 38 4f bb 00 00 00 00
       0.0 0.0 -0.0031619451 0.0
0000c0 00 00 00 00 00 00 00 00
       0.0 0.0

sequential_2/dense_6/MatMul f4 [50, 714]
000000 98 3d 67 bc 64 9f c8 3c c0 ef 9e 3d 94 ec 8c 3d
       -0.014113806 0.024490066 0.077605724 0.06881061
000010 d8 fd c5 bc 28 61 b5 bd a9 0e 98 bd 48 65 9a 3d
       -0.024168894 -0.08856422 -0.07424671 0.07538849
000020 2a 46 88 3d d8 db 59 3c de c9 84 bd 72 28 1a bd
       0.06654008 0.013297044 -0.064838156 -0.037636228
000030 00 74 f9 3c da de 83 3d 94 d9 3e 3d 0c 9b 6a 3d
       0.03045082 0.0643899 0.046594217 0.05727677
000040 c6 d4 f3 bc 26 fd 05 3d 54 ab ee 3c 28 d3 3d 3c
       -0.029764544 0.032712124 0.02913443 0.011585988
000050 d2 c1 93 3d 50 b3 9c 3d 6d d1 b3 bd 76 1c aa 3d
       0.07214703 0.07651389 -0.08780179 0.0830621
000060 36 9f 97 3d ec 7f 0d 3d be 93 18 bd 79 a6 51 bd
       0.07403414 0.034545824 -0.037250273 -0.05118415
000070 72 6e 96 bd ee 3a 0e 3d 9a cc 8e 3d b9 d4 18 bd
       -0.073452845 0.03472417 0.069726184 -0.037312243
000080 8c 47 96 3c 8c f1 31 3d 7d 2f a0 bd b4 0a 04 3d
       0.018344663 0.043443248 -0.07821558 0.03223677
000090 0c 34 81 3c c0 22 fa 3c 28 55 51 bc c8 b8 4b 3d
       0.015771888 0.030534148 -0.0127766505 0.049736768
0000a0 b0 47 6b bc c0 7e be 3b 34 9f 4a 3d a9 09 9d bd
       -0.014360353 0.0058134496 0.049468234 -0.07667858
0000b0 d0 67 1f 3c 14 86 16 3d f0 3f bb 3c 00 7f ad 39
       0.009729341 0.03674896 0.022857636 0.00033091754
0000c0 f8 3b 92 bd 39 13 9a bd 37 95 07 bd f8 fa 2b 3d
       -0.071403444 -0.07523198 -0.033101287 0.04198739
0000d0 4c 85 39 3d 70 e4 23 bc 8f 8c 68 bd cf ad 27 bd
       0.045293137 -0.010003194 -0.056774672 -0.04093724
0000e0 d8 f8 19 3c 29 6e b4 bd 80 c3 2b 3b 94 dd 63 3d
       0.009397708 -0.08810074 0.0026209056 0.055631235
0000f0 32 a9 0c bd 6e 10 95 3d b5 d3 92 bd 08 72 f4 3c
       -0.034341045 0.07278524 -0.07169286 0.02983953
000100 13 12 57 bd 70 0c 96 3b b8 e5 32 3c 94 2e 67 3d
       -0.05250747 0.0045791194 0.010919027 0.056440905
000110 88 4b 78 3c 4c e4 b6 3c b8 a2 98 bd ba 46 68 bd
       0.015154727 0.022325657 -0.07452911 -0.056708075
000120 e4 af 87 bc be b9 9e 3d 16 72 21 bd 32 4c 4c bd
       -0.016563363 0.07750271 -0.03941544 -0.049877353
000130 ec f2 91 3c a0 1d 47 bc 80 34 f3 3a de 9c 63 bd
       0.01781603 -0.012153059 0.0018555075 -0.055569522
000140 8c 52 93 bd b6 23 94 3d bc df dd bc 28 70 8f 3d
       -0.07193479 0.07233374 -0.027084224 0.07003814
000150 00 40 2c b7 c5 de 8a bd 22 28 b5 3d a0 e3 80 3d
       -1.02669e-05 -0.06780771 0.08845545 0.06293416
000160 6e 7f 15 bd cc 87 24 3d d8 06 4b 3c 0e ee 0b bd
       -0.03649848 0.04016857 0.012391768 -0.034162574
000170 8e e7 89 bd 5a a3 98 3d d8 50 a6 3c ac 8b c2 3c
       -0.06733619 0.07453032 0.020302221 0.023748241
000180 0e dd e2 bc 1a 0b 2c bd 92 c7 a4 3d 80 74 a3 3d
       -0.027693298 -0.042002775 0.080458775 0.07981205
000190 ce e6 b4 3d 20 a5 7d bc 12 d3 9a bd c0 23 5c 3c
       0.08833085 -0.015481263 -0.0755979 0.013436258
0001a0 f4 52 86 3d 80 8b ce bb 34 52 15 3d 0a 7c 83 bd
       0.06558791 -0.006303251 0.036455348 -0.06420143
0001b0 d0 0a 8d 3d c0 0a 4b bc a0 4d 2c bc e5 83 03 bd
       0.06886828 -0.0123927 -0.010516554 -0.032108206
0001c0 c0 cf 83 bd 4a 62 9a 3d 20 e4 78 bc 97 c5 8b bd
       -0.064361095 0.075382784 -0.015191108 -0.06824797
0001d0 7e 1f e4 bc b1 17 b1 bd 54 35 f0 bc 20 93 2e 3d
       -0.027847048 -0.08647097 -0.029322304 0.042620778
0001e0 e3 4c 8f bd b2 dc 8a 3d 00 11 af 3b 36 11 fc bc
       -0.06997087 0.067803755 0.0053426027 -0.030769926
0001f0 b6 e5 b3 3d a0 c3 1f bb cf 23 03 bd 6a 86 08 bd
       0.08784048 -0.0024378076 -0.03201657 -0.033331312
000200 ac 2c 1d 3d 9f ee 60 bd 26 b4 46 bd 28 fe 73 3d
       0.03837268 -0.054915067 -0.048511647 0.059568554
000210 d0 b7 b0 3c 08 be ec bc 90 1f cb bb 33 16 ad bd
       0.021572024 -0.028899208 -0.006198831 -0.084515
000220 fe a0 aa bd 9f 93 4a bd 94 29 7f bd 7c 3a 90 3c
       -0.08331488 -0.04945719 -0.06229551 0.017606013
000230 a0 8b a7 3d 54 c0 55 3d c0 03 cb bc b3 4f 21 bd
       0.08180928 0.05218537 -0.024782062 -0.039382648
000240 38 18 34 3d a0 7a 95 3c 6e b3 10 3d a0 48 1f bc
       0.04396841 0.018246949 0.035327367 -0.009721905
000250 05 2e 4b bd 2e e8 84 3d 1a 95 ae 3d 10 55 aa bc
       -0.049604435 0.06489597 0.085245326 -0.020792514
000260 18 ee 15 3d d0 8a 92 3c 70 97 6b 3d 49 08 8d bd
       0.036604017 0.017888457 0.05751747 -0.06886346
000270 05 89 5d bd e6 96 9b bd 85 5c 4f bd 70 36 64 3c
       -0.05408575 -0.07597141 -0.050625343 0.013928995
000280 8c 2e fa 3c 22 69 e8 bc ac 34 1e 3d e0 03 24 bc
       0.030539773 -0.028370444 0.03862445 -0.0100106895
000290 f2 9b 81 3d 40 71 a0 bc c0 f6 0f bb 9e 39 a8 3d
       0.06328572 -0.019585252 -0.0021967143 0.082141146
0002a0 3c ff 20 bd 04 6b a0 3d 7e 8e 83 bd 2a f2 8e bd
       -0.03930591 0.078329116 -0.064236626 -0.06979783
0002b0 d8 38 a0 3c 50 15 88 bc d8 d0 56 3d 22 20 b3 bd
       0.019558355 -0.016611725 0.052445263 -0.08746363
0002c0 40 38 56 3d f8 2c 70 bc e8 91 52 3d 3c ef 95 3d
       0.052299738 -0.014659159 0.05140868 0.07321021
0002d0 a8 9a 36 3c ba b4 8e bd 38 7b 99 bd 44 88 e3 bc
       0.011145271 -0.069680646 -0.07494205 -0.027774937
0002e0 a8 7f a7 3c c8 b1 65 bd b4 39 40 bd c4 69 60 3d
       0.020446613 -0.05607775 -0.04693003 0.054788366
0002f0 ea 6a 10 3d 12 71 9b bd 50 d3 ac 3d 76 a7 9c 3d
       0.03525821 -0.07589926 0.08438742 0.07649128
000300 54 9c a8 3d 30 47 aa 3b 9c ef 71 3d 5c a3 98 bc
       0.08232942 0.0051964745 0.0590664 -0.018632583
000310 d3 6a a9 bd c0 26 8a 3d 08 91 9d 3c a5 89 82 bd
       -0.08272328 0.06745672 0.019234195 -0.0637391
000320 dc a8 aa 3d 13 1c 4c bd 84 13 a3 bd 09 28 8b bd
       0.083329886 -0.04983146 -0.07962707 -0.067947455
000330 3c ce a8 bd 90 78 7d bd 0c 7f 6a 3d b4 83 1d 3d
       -0.08242461 -0.061882555 0.057250068 0.03845568
000340 dc 57 e2 bc b6 ff 0d bd 38 df b4 bd a6 63 78 bd
       -0.027629785 -0.034667693 -0.08831638 -0.060641907
000350 41 84 40 bd f8 6d a4 bc b8 69 10 bc 10 ba 8e bc
       -0.047001127 -0.020071968 -0.008814268 -0.017422706
000360 d8 69 9f 3d 4e 95 74 bd 8c ba 84 3d 6c 0c d9 3c
       0.0778386 -0.0597127 0.064808935 0.026495181
000370 f1 56 96 bd b2 3e 76 bd a6 d1 a2 3d a0 9f 0a 3d
       -0.073408015 -0.060118385 0.079501435 0.033843637
000380 fc c1 13 3d 5c ee e5 3c f0 7c 9e bc c8 2c 26 3c
       0.03607367 0.02806776 -0.019346684 0.010142513
000390 40 7b 16 3b 28 31 27 3c 1c b7 8a bd e0 c9 fe bb
       0.0022961646 0.010204591 -0.067732066 -0.00777553
0003a0 5c b0 93 3d 60 95 5f 3d 3e 4e a8 3d b1 74 2e bd
       0.07211372 0.054585814 0.082180485 -0.042591754
0003b0 14 ab 78 bd e6 97 95 3d c6 90 ad 3d 10 7b b8 bb
       -0.060710028 0.07304363 0.08474879 -0.0056299046
0003c0 fd d7 74 bd ea 30 ff bc f6 a0 01 bd 7e 5f a8 bd
       -0.059776295 -0.031151254 -0.031647645 -0.08221339
0003d0 68 de 34 3d 28 f5 6d bc a0 8f 38 3c 20 bc 28 3c
       0.044157416 -0.014523782 0.011264712 0.010298759
0003e0 1d 0f 49 bd fc 03 a4 bd 28 54 23 bc ba b9 ac bd
       -0.04908668 -0.080085725 -0.009968795 -0.08433862
0003f0 10 15 ae 3c 50 bb 19 3d 94 81 80 bd 24 6c f0 bc
       0.021250278 0.03753215 -0.06274715 -0.02934844

sequential_2/dense_7/MatMul f4 [15, 50]
000000 40 1f 05 3d 40 4e 4d be 58 93 d4 3d c0 f8 44 bc
       0.032500505 -0.20049381 0.10379666 -0.012022197
000010 40 fb 11 3c 91 f5 70 be 48 c1 96 3e 5f 2c 35 be
       0.00891 -0.23531176 0.29444337 -0.17692707
000020 d0 5a 3b be f0 89 44 3e bc 47 e8 3d 6c 40 aa 3d
       -0.18296361 0.19193244 0.11341807 0.08313069
000030 fa 51 bb bd 40 0c 17 3c b6 d7 0a 3e b8 99 40 bd
       -0.09146495 0.009219229 0.1355885 -0.047021598
000040 a4 c3 7b 3e b7 89 7f be d5 e9 70 be 08 2a 76 3e
       0.2458635 -0.24954878 -0.235267 0.24039471
000050 6c 3f 00 3e 42 e3 29 3e bc a1 58 be 30 33 72 3e
       0.12524194 0.16590598 -0.21155447 0.23652339
000060 2a ac 8e bd f8 ab 26 bd 22 f5 19 be eb 75 4b be
       -0.069664314 -0.040691346 -0.15034917 -0.19869201
000070 00 7f 20 be 80 39 eb bc ca d1 c2 bd 61 36 1f be
       -0.15673447 -0.028713942 -0.0951267 -0.15548088
000080 4d 61 8f be 90 55 84 be ae 63 3e 3e c8 5a 52 be
       -0.28003922 -0.2584653 0.18592712 -0.20542443
000090 49 a0 22 be c0 b6 89 be d6 dd 87 3e 68 6a 0e 3e
       -0.15881456 -0.2689724 0.26536435 0.13907778
0000a0 70 28 e7 3d 30 d1 06 3e f3 d3 8c be e5 c3 5d be
       0.1128701 0.13165736 -0.27505454 -0.21656759
0000b0 a4 1c 58 3e 40 f1 c2 bb d0 80 c6 3d 8c 99 b9 3d
       0.21104676 -0.0059491694 0.09692538 0.0906249
0000c0 1c e0 98 3e 0a cf 99 3e ea 1d c0 bd e0 5c 86 3d
       0.29858482 0.3004077 -0.09380706 0.06560683
0000d0 18 db 85 be 2e 0b a2 bd de 11 98 be 8f 19 90 be
       -0.26143718 -0.079122886 -0.29701132 -0.281445
0000e0 26 02 89 3e b6 12 ca bd 0e b9 26 3e eb 40 13 be
       0.26759452 -0.0986685 0.1628153 -0.14380233
0000f0 94 1b 08 3e 98 26 72 3d bd c2 8c be dc c6 66 3e
       0.1329177 0.059118837 -0.27492324 0.22536796
000100 38 a3 96 be fd 72 9b be 21 a4 78 be ab 31 ae 3b
       -0.294214 -0.30361167 -0.2428136 0.0053159795
000110 64 2c 54 be 08 e4 d6 3d 58 4e 11 bd b6 69 33 3e
       -0.20720059 0.10492712 -0.035475105 0.17520794
000120 0c ae 35 be e0 50 53 be 0e a0 46 be 24 0d 92 3d
       -0.17742175 -0.2063632 -0.19396994 0.071314126
000130 b2 e1 76 be fa 69 9b be 50 3d 3a 3d cc df a3 3d
       -0.24109533 -0.3035429 0.04546863 0.0800167
000140 37 67 90 be b0 6c 94 be 8c a7 7c 3e ae ce 2a be
       -0.28203747 -0.28989172 0.24673289 -0.16680405
000150 cf 72 25 be 20 dd 89 bc a0 f6 09 3c 9d 02 12 3e
       -0.16157077 -0.016829073 0.008420616 0.1425881
000160 e1 4a 93 be b7 f0 8f be cc e5 68 be 7c 48 4b 3e
       -0.28768066 -0.28113338 -0.2274391 0.1985187
000170 84 b8 ea 3d fc f7 86 bd c0 e2 3b 3e 38 8b 7a 3d
       0.11460975 -0.06590268 0.18348217 0.061167926
000180 14 c4 a4 3d c0 2f 4f bc 00 08 44 39 60 88 aa 3d
       0.080452114 -0.012645662 0.00018694997 0.08326793
000190 08 13 7d bd 98 0a c5 3b 6c 3c 7e be 70 0a 0a bd
       -0.061785728 0.0060132258 -0.24827737 -0.03370136
0001a0 8b 4a 58 3b 80 c2 d8 bd fc 81 8f 3d b5 f0 1a be
       0.0033003415 -0.10583973 0.070072144 -0.15130885
0001b0 10 8c 33 3d 20 3e 12 3c bc 1a 8b be f6 71 f3 3b
       0.043834746 0.008925945 -0.27168834 0.0074293567
0001c0 ec 82 1f be 66 9e 50 3e 0e 3e b7 3b e5 0c b0 3d
       -0.15577286 0.20372924 0.0055921143 0.085962094
0001d0 c4 f5 13 3e 4b 6c 9d bd d1 6d 05 3e bb af e2 bc
       0.14449221 -0.07686671 0.13030173 -0.027671685
0001e0 4c 63 53 be 87 49 94 be d2 f4 6f 3e 3a 55 20 3e
       -0.20643348 -0.28962347 0.23433235 0.15657511
0001f0 19 39 82 3e 23 1a 23 be 19 cc 50 3e 0a 4b 24 3e
       0.25434187 -0.15927939 0.20390357 0.1604425
000200 d0 00 35 be aa 46 60 bd c2 7b 78 be 40 9f ea bd
       -0.17676091 -0.05475489 -0.2426596 -0.11456156
000210 08 37 3b 3e 11 ac 85 be b2 b2 db bd c4 a1 fa 3d
       0.18282712 -0.2610784 -0.10727443 0.122378856
000220 fe e8 a6 bd ee 84 90 be 90 27 52 3e e6 d3 3b 3e
       -0.081499085 -0.28226417 0.20522904 0.18342552
000230 10 cc 96 be 30 01 6d 3e 24 51 93 3d 88 f9 94 3e
       -0.29452562 0.23144984 0.07193211 0.29096627
000240 a0 ae 0b 3d c8 84 03 bd f4 bc 58 bd dc 81 4b 3e
       0.034102082 -0.032109052 -0.052914575 0.19873756
000250 00 df 5b 3b 62 56 8a bd 58 05 32 bd 48 c7 a5 3c
       0.0033549666 -0.067547575 -0.043462127 0.020236626
000260 58 a3 5f 3d 0e 33 94 3e 88 f4 6c 3e 66 00 98 be
       0.054599136 0.28945202 0.23140156 -0.29687804
000270 3c f2 65 3e 5e 25 b1 bd 03 3e 07 be 70 9d b8 3c
       0.22455686 -0.08649705 -0.1320725 0.02253601
000280 6c 25 3c 3e 00 bc 83 bd 60 df 9a bc 22 65 7f 3e
       0.1837365 -0.064323425 -0.018905342 0.24940923
000290 a2 b2 3f be 84 00 95 3b 6e 1c 0d 3e aa 16 fa 3e
       -0.18720487 0.0045471806 0.13780376 0.48845416
0002a0 39 f3 90 3e 10 52 90 3e 08 87 5c 3d a5 f5 43 3e
       0.28310564 0.2818761 0.053839713 0.19136675
0002b0 4d 4d 59 be 6b 64 b8 bd bc 0f d1 3d cc 1d ca 3d
       -0.21220894 -0.09003528 0.10208079 0.098689646
0002c0 08 f7 45 bd d2 05 90 be 04 a0 8d 3e 7e df e2 bd
       -0.04833129 -0.2812944 0.27661145 -0.11077784
0002d0 80 1e 64 bc d1 7c 9a be af fd 0d 3e 00 a2 a5 3b
       -0.013923287 -0.30173352 0.13866304 0.0050547123
0002e0 7f 89 0c be 0b ae 5b 3e 84 76 9a 3e 20 f7 69 be
       -0.13724326 0.21453111 0.30168545 -0.22848177
0002f0 d2 0e 45 3e e9 73 63 3e 0a 2c fc bd 84 9c 98 3e
       0.19243935 0.22212185 -0.12313087 0.29806912
000300 9e d2 0e 3e ba 3e a5 3d 35 4b 32 be 40 57 01 3d
       0.13947532 0.08068605 -0.17411502 0.03157735
000310 ff 64 43 be cc 94 2c 3e de 9f 8a be af 41 66 be
       -0.19081496 0.16853637 -0.27075094 -0.22485994
000320 6c 89 2c be f8 4f 0b bd d8 c3 fb bd b8 95 93 3e
       -0.16849297 -0.03401181 -0.122932136 0.28825164
000330 05 53 77 be e2 63 16 3e 9a 35 79 be 23 f7 18 be
       -0.24152763 0.1468654 -0.24336854 -0.14938025
000340 36 95 90 3e 00 91 fa ba 7e 69 2d 3e 4a ad 7b be
       0.2823884 -0.00191167 0.16934773 -0.24577823
000350 fe 6d 06 be dc 1b 4f 3e 30 da 86 be e5 00 08 be
       -0.13127896 0.20225471 -0.2633834 -0.13281591
000360 00 32 29 bc 6a c1 46 be cc bb 11 be 82 03 0c 3e
       -0.010326862 -0.19409719 -0.14231795 0.13673213
000370 82 df 2d be cd 87 04 be c4 bb df bd 30 50 4a 3d
       -0.16979793 -0.12942429 -0.10924485 0.04939288
000380 20 6a 8a 3c 10 d8 71 3e 6c 7a 44 be b0 61 00 3d
       0.016896307 0.23617578 -0.19187325 0.031343162
000390 80 2e 72 3d e6 b4 06 3e ac 9c 89 3e fc 1a cd 3d
       0.059126377 0.13154945 0.26877344 0.100149125
0003a0 60 b9 fb 3c 44 9c 01 be a2 21 9e bd 60 6e 50 bc
       0.030728042 -0.12657267 -0.07721259 -0.012721628
0003b0 a6 11 ca bd f4 36 c6 3d a2 e8 b6 bd e4 0e 79 3e
       -0.098666474 0.0967845 -0.0893109 0.24322087
0003c0 bb 26 9a be f0 b6 bf 3c 6a ab 00 3e b0 60 f4 3c
       -0.30107674 0.023402661 0.1256539 0.02983126
0003d0 20 1a f8 3c 8c cb 59 3e 00 60 27 38 fc 17 c5 3d
       0.030285895 0.21269053 3.990531e-05 0.09623715
0003e0 40 26 0e 3c 74 88 96 be d8 35 1a 3e 95 96 d9 bb
       0.008676112 -0.2940098 0.15059602 -0.006640265
0003f0 10 f5 b5 bc c0 d8 ab 3b f0 81 dc bd 0f 3c 79 be
       -0.022211581 0.0052443445 -0.10766971 -0.24339317

sequential_2/dense_8/MatMul f4 [2, 15]
000000 b0 98 eb 3e c7 56 a3 be fe 37 91 3e d6 62 16 3f
       0.4601493 -0.31902143 0.2836303 0.5874456
000010 ac 62 8f be 7a 02 a1 be 45 34 34 be aa d3 12 bf
       -0.28004968 -0.31447202 -0.17598064 -0.57354224
000020 4e 02 c1 be e0 fc 34 3f 66 20 c5 3e e2 0c f1 be
       -0.3769707 0.70698357 0.3850128 -0.4708014
000030 f6 65 48 bd 3c e4 2f be 5f af c7 be e4 55 77 3e
       -0.048925363 -0.17176908 -0.39000985 0.24153858
000040 6e d8 ae be 1c 3f 09 3f 7a 3b ce be 9e 33 8c be
       -0.34149498 0.5361192 -0.40279752 -0.2738313
000050 fd e8 71 be 9b 9e 00 bf 46 f5 3d 3f 3d 6c 0e 3f
       -0.23624034 -0.5024201 0.7420238 0.5563391
000060 96 94 76 bf d8 56 65 bf 6b ce 59 bd d7 df 2d bf
       -0.96320474 -0.8958564 -0.05317537 -0.6791968
000070 e0 c9 a4 3c 05 d2 2c 3f
       0.020115793 0.67507964
